enhanced_emotion_cnn.pth (torch, 39050 bytes, 6 tensors)

fc1.weight f4 [128, 4]
0.46951702 0.32711124 -0.055308323 0.35103235 0.4227676 -0.083499774 0.31614432 0.27607724
-0.18562233 -0.075725496 -0.08822447 0.44961613 0.14374202 -0.49027708 0.26816222 -0.27098528
0.4269361 0.09511191 -0.20503277 0.07491541 -0.23466986 -0.36551148 -0.3407758 0.2863229
-0.16487415 -0.3630629 0.23208116 0.1311502 0.33662075 -0.12154043 -0.2505175 0.2772522
0.09209031 0.43749565 -0.41942936 -0.3327443 0.155725 0.13200843 0.47825217 0.36048508
0.39184004 -0.35938781 -0.44929445 -0.3064202 0.1654321 -0.48696217 0.3897482 -0.3445979
-0.33208442 -0.26738334 -0.23037177 0.3877263 -0.15015577 -0.14496651 0.40840226 0.21656457
-0.34952667 0.14042336 0.43640554 -0.2996342 -0.18685916 0.46502867 0.43849114 0.007221965
0.14522862 -0.19268201 0.32559517 -0.4259456 0.11098939 0.44914663 -0.46263486 0.059333205
0.48184562 -0.1077801 -0.39756864 -0.4847706 -0.14135063 0.3229257 -0.10466409 -0.089705706
0.11468351 -0.0021613836 -0.13680577 -0.4947331 0.47917712 -0.4478321 -0.2763158 0.11403155
0.13912421 0.37345225 -0.33019084 -0.25838423 0.3306529 -0.37599182 -0.3026715 0.31857723
0.43540347 0.07165229 0.031232258 0.12224651 0.3760088 0.09213245 -0.1262576 -0.17889637
0.23954183 0.46938333 -0.00040834633 -0.5025299 0.08456218 0.4551198 -0.23457229 0.060518563
0.19243877 0.39140394 -0.04806956 -0.016954297 -0.44789115 -0.2504715 0.33785233 0.09701911
-0.2806611 0.29278862 -0.15734142 -0.13073128 0.05201265 -0.0654056 0.44423124 -0.40746322
-0.14667857 -0.27242988 -0.07382387 0.23698694 0.331724 0.3968531 -0.43479162 0.06760186
0.033377465 0.15265526 0.12889245 0.13604496 0.34751764 0.31964457 0.05958192 -0.46565482
-0.19184844 -0.41385728 0.11192851 -0.3218172 0.35808408 -0.25079593 0.19330236 -0.48372698
-0.14505517 -0.121849716 -0.30451602 -0.12008268 -0.07300764 0.018026412 -0.25178707 0.21874428
0.29096973 0.2871654 -0.17296523 -0.43656987 0.22638449 0.014451971 0.17870748 -0.25431246
0.49403042 0.31542295 -0.33164632 -0.09686828 0.24154066 0.39007774 0.44239873 -0.46319082
0.43586904 0.21059225 0.24460913 -0.35876527 -0.34893417 -0.37541384 -0.24586523 -0.2786811
-0.041163623 0.18369538 -0.08665824 0.11734992 0.21189624 0.027790368 -0.13416785 0.20728475
0.073454365 0.47354156 -0.023022197 -0.2476547 0.4553162 0.05415259 0.08603962 -0.34322184
0.40213338 0.41210875 0.41123056 -0.3187612 0.022847276 -0.31030288 0.087132186 -0.4494959
-0.32670224 0.44582102 0.36330956 -0.25796607 0.43284762 0.3322521 -0.17239165 0.25506085
0.44277465 0.15093374 -0.4113013 0.0060724616 -0.2895875 -0.491272 0.2718793 0.16702026
0.06791919 -0.21403219 0.11349332 -0.054343894 -0.35623953 -0.22675283 0.4158061 -0.42887688
0.4537751 -0.051882625 -0.21890795 -0.3563441 -0.40143958 0.24943143 0.38807157 -0.07947536
-0.28761312 -0.43936154 0.19161217 0.40358335 -0.009883847 0.45115772 0.28124762 0.34588376
-0.16982657 -0.24804711 -0.31109184 0.28494245 0.48344362 -0.28977752 -0.4816956 0.29537827
00000000: 8964 f03e 207b a73e fb8a 62bd 83ba b33e
00000010: ff74 d83e ee01 abbd abdd a13e ff59 8d3e
00000020: c813 3ebe f815 9bbd 08af b4bd 1634 e63e
00000030: 1c31 133e 9905 fbbe 8f4c 893e 95be 8abe
00000040: 5e97 da3e 08ca c23d 1cf4 51be 406d 993d
00000050: 4c4d 70be 5224 bbbe 2a7a aebe ea98 923e
00000060: c5d4 28be 61e3 b9be afa6 6d3e 3d4c 063e
00000070: 8e59 ac3e 30ea f8bd d443 80be 00f4 8d3e
00000080: d899 bc3d 6eff df3e 72bf d6be 765d aabe
00000090: 6076 1f3e 382d 073e 78dd f43e 8091 b83e
000000a0: 429f c83e ae01 b8be ec09 e6be 1ce3 9cbe
000000b0: 0867 293e 1b53 f9be 138d c73e 236f b0be
000000c0: f806 aabe 78e6 88be 94e6 6bbe 1084 c63e
000000d0: 6fc2 19be 1a72 14be 1a1a d13e 1ac3 5d3e
000000e0: 29f5 b2be 24cb 0f3e 8c70 df3e a769 99be
000000f0: 0258 3fbe 3d18 ee3e e981 e03e 3ca6 ec3b
00000100: d0b6 143e 6f4e 45be 69b4 a63e 8b15 dabe
00000110: 684e e33d 8cf6 e53e 7ade ecbe 6007 733d
00000120: 78b4 f63e d0bb dcbd 1e8e cbbe da33 f8be
00000130: 38be 10be 8456 a53e 205a d6bd a0b7 b7bd
00000140: 30df ea3d 00a6 0dbb d016 0cbe a84d fdbe
00000150: b456 f53e 404a e5be 4479 8dbe 6089 e93d
00000160: 9476 0e3e 2235 bf3e c60e a9be f04a 84be
00000170: 564b a93e 0082 c0be c2f7 9abe 8e1c a33e
00000180: 34ed de3e 70be 923d cbda ff3c 615c fa3d
00000190: 3a84 c03e f0af bc3d ac49 01be 9c30 37be
000001a0: 744a 753e 0353 f03e 5117 d6b9 cda5 00bf
000001b0: f02e ad3d 7605 e93e b833 70be 50e2 773d
000001c0: ab0e 453e 1966 c83e 96e4 44bd bde3 8abc
000001d0: fd51 e5be cd3d 80be fbfa ac3e f5b1 c63d
000001e0: d0b2 8fbe 64e8 953e 1c1e 21be 6cde 05be
000001f0: 370b 553d 5ff3 85bd 4772 e33e 059f d0be
00000200: e832 16be ee7b 8bbe f830 97bd b4ac 723e
00000210: bad7 a93e 5430 cb3e 029d debe d872 8a3d
00000220: cfb6 083d a951 1c3e 62fc 033e 5f4f 0b3e
00000230: d5ed b13e 74a8 a33e 2c0c 743d 4f6a eebe
00000240: eb73 44be 1ae5 d3be c63a e53d 39c5 a4be
00000250: cc56 b73e 5368 80be 0ef1 453e 10ab f7be
00000260: 5889 14be 588c f9bd 86e9 9bbe e8ed f5bd
00000270: 0885 95bd 20ac 933c 3cea 80be 80fe 5f3e
00000280: fcf9 943e 5807 933e cc1d 31be 1686 dfbe
00000290: 56d1 673e f6c7 6c3c 18ff 363e 3e35 82be
000002a0: 8ef1 fc3e 1e7f a13e 8ccd a9be e062 c6bd
000002b0: 6f56 773e 45b8 c73e 1682 e23e 5927 edbe
000002c0: 3a2a df3e 7fa5 573e d17a 7a3e 15b0 b7be
000002d0: 80a7 b2be 3e36 c0be 18c4 7bbe 4aaf 8ebe
000002e0: 309b 28bd a41a 3c3e e079 b1bd 2855 f03d
000002f0: 54fb 583e a0a8 e33c 4c63 09be 7442 543e
00000300: 3e6f 963d 0a74 f23e 0c99 bcbc 3299 7dbe
00000310: 341f e93e 1bcf 5d3d 8a35 b03d c6ba afbe
00000320: 6de4 cd3e ebff d23e d08c d23e ab34 a3be
00000330: 362a bb3c 05e0 9ebe 5c72 b23d 5424 e6be
00000340: 8445 a7be a742 e43e b603 ba3e 2114 84be
00000350: 349e dd3e f21c aa3e 7087 30be 5697 823e
00000360: 5cb3 e23e 608e 1a3e 1696 d2be 80fb c63b
00000370: d044 94be 0188 fbbe c333 8b3e 5c07 2b3e
00000380: 3719 8b3d 412b 5bbe 306f e83d b497 5ebd
00000390: 0765 b6be e531 68be 8ae4 d43e c095 dbbe
000003a0: 3655 e83e e082 54bd 6829 60be bc72 b6be
000003b0: 7d89 cdbe f46a 7f3e 51b1 c63e fac3 a2bd
000003c0: 0742 93be fff3 e0be fb35 443e 7aa2 ce3e
000003d0: dcef 21bc 25fe e63e b0ff 8f3e ad17 b13e
000003e0: 04e7 2dbe 1000 7ebe 6e47 9fbe fae3 913e
000003f0: ec85 f73e b85d 94be cea0 f6be d23b 973e

fc1.bias f4 [128]
0.43921167 -0.03252957 -0.36355585 -0.2857347 0.21238267 -0.45974547 -0.06868591 0.1254918
0.066651344 0.1579349 -0.27694035 -0.008130445 -0.2716524 -0.37863052 -0.2247149 -0.37561762
-0.45566717 0.07260388 -0.3051175 -0.19434178 -0.17329186 -0.37712574 0.043584764 -0.2929421
0.22191022 -0.041956663 0.44278574 0.2641557 -0.41087237 0.17449835 0.14053804 -0.41202262
-0.2893327 -0.025707364 0.1786289 -0.24898136 0.41057518 0.070325375 -0.4824581 0.25018144
-0.25768137 0.1921797 -0.013125658 -0.36483172 0.2526395 -0.01563859 0.23291492 -0.2046327
-0.09259492 0.35591504 -0.18094978 -0.20138443 0.1136331 -0.45282495 -0.46244287 -0.45747045
-0.29144257 0.081302114 0.010671854 0.3970317 0.19262105 -0.39471292 0.27905107 -0.17479151
0.2341151 0.20959562 0.37553883 0.38766372 0.23532099 0.3544313 0.36024222 0.34822363
0.0068612476 -0.12489432 0.08792114 -0.4725526 -0.4751432 -0.34244102 0.3295673 -0.39914864
0.1706478 0.23145562 -0.39392912 0.18263063 0.38247797 0.279285 -0.07780211 0.10104489
0.27508363 -0.12130988 -0.10712513 0.4536969 -0.38802212 0.15999326 0.07363939 0.29344648
0.350564 0.19355136 0.3655115 0.119574785 -0.3016476 -0.31023943 -0.28761238 0.002026379
0.23201457 0.16659136 0.13199592 -0.4247567 -0.3186087 -0.32721293 -0.38275093 0.33732155
0.017344475 0.29639292 0.2638335 -0.0059362957 0.26159474 0.47199082 0.20596825 -0.3202055
0.3658061 0.36148274 -0.08272782 0.49447 -0.20169723 -0.47832066 0.44901997 -0.13737899
00000000: 5ae0 e03e ba3d 05bd fe23 babe d24b 92be
00000010: d87a 593e c263 ebbe 33ab 8cbd ec80 003e
00000020: 8080 883d b0b9 213e 20cb 8dbe 8f35 05bc
00000030: 0616 8bbe dcdb c1be aa1b 66be f450 c0be
00000040: 354d e9be 58b1 943d 5c38 9cbe 8801 47be
00000050: 6c73 31be a016 c1be f085 323d 82fc 95be
00000060: 6f3c 633e c0da 2bbd d0b4 e23e 6a3f 873e
00000070: dd5d d2be b2af 323e 34e9 0f3e a1f4 d2be
00000080: 6a23 94be 4098 d2bc 7fea 363e f8f4 7ebe
00000090: e936 d23e c006 903d c004 f7be c817 803e
000000a0: d0ee 83be c1ca 443e 000d 57bc 39cb babe
000000b0: f759 813e 801c 80bc 4081 6e3e 3c8b 51be
000000c0: 68a2 bdbd 7f3a b63e e64a 39be b837 4ebe
000000d0: 79b8 e83d acd8 e7be 50c5 ecbe 9139 eabe
000000e0: f637 95be b981 a63d 00d9 2e3c bd47 cb3e
000000f0: 743e 453e d017 cabe c8df 8e3e 8cfc 32be
00000100: debb 6f3e 3ca0 563e a046 c03e dc7b c63e
00000110: fcf7 703e 0578 b53e ab71 b83e 5e4a b23e
00000120: 51d4 e03b 98c8 ffbd 0010 b43d 6af2 f1be
00000130: f845 f3be 6e54 afbe 0cbd a83e 365d ccbe
00000140: 4cbe 2e3e b402 6d3e 14b1 c9be 8603 3b3e
00000150: 27d4 c33e 72fe 8e3e b656 9fbd a0f0 ce3d
00000160: c3d7 8c3e 5071 f8bd 6c64 dbbd f64a e83e
00000170: d6aa c6be 46d5 233e 40d0 963d 9e3e 963e
00000180: 207d b33e 5432 463e 5324 bb3e a0e3 f43d
00000190: 8e71 9abe b4d7 9ebe ee41 93be 00cd 043b
000001a0: 3a95 6d3e ed96 2a3e f029 073e b679 d9be
000001b0: ae20 a3be 7488 a7be eef7 c3be 69b5 ac3e
000001c0: 0016 8e3c d0c0 973e 2f15 873e 4285 c2bb
000001d0: bfef 853e c8a8 f13e 57e9 523e faf1 a3be
000001e0: f04a bb3e 4414 b93e 346d a9bd 2c2b fd3e
000001f0: b889 4ebe 72e6 f4be f2e5 e53e 14ad 0cbe

fc2.weight f4 [64, 128]
0.017211521 0.045081254 -0.06253387 0.046366036 -0.041702494 -0.0362622 0.043006767 -0.069139466
0.06621335 0.07875304 -0.053339753 -0.017946228 0.061089955 0.008527978 0.04822233 -0.04406271
0.050487466 -0.02425804 0.031361125 0.026721373 -0.075136565 -0.0052980185 -0.08173235 -0.086251915
0.023454834 -0.029726688 0.002037809 0.02068086 -0.006837136 -0.057643004 0.067581125 0.09019404
0.0144965425 -0.06477607 -0.031760182 0.038313188 0.048883926 0.0054367227 -0.029447656 0.019112028
0.010091923 -0.043189533 0.051363878 0.041271344 -0.067710474 0.005723238 0.035126418 -0.059864506
0.07656638 -0.018296035 0.08868735 0.059473775 -0.032570973 0.0693671 -0.06891372 -0.064252056
0.08605835 0.009877683 -0.031970575 -0.08061725 -0.018892534 0.08591919 -0.046268776 -0.067855805
0.13101238 -0.061280243 -0.015018181 0.08491256 0.02069734 -0.047505192 0.005664994 -0.03520667
0.026311066 0.010832064 0.06042027 0.07950551 0.06592121 0.026424527 0.067924045 0.03102433
-0.036521386 0.045042343 0.04453102 -0.06607816 -0.027682189 -0.050111767 -0.0061091655 -0.00057489425
0.014346295 0.056278236 -0.06884617 0.0638128 0.08118955 -0.13078815 -0.08159612 -0.04462658
-0.043972544 0.017675132 -0.03490934 -0.009614162 0.07599705 0.00035051256 0.06695137 0.0767448
0.060606115 0.056761693 0.067274995 0.04532156 -0.0018518716 0.075040735 0.05521258 -0.028788026
0.050858237 0.01805537 0.04284874 -0.0025558493 0.015403882 -0.022007212 0.07810895 0.07484443
0.041439645 0.00028927624 -0.011101947 0.02874557 -0.046267163 0.004098192 0.015240036 0.085489936
0.0088114375 0.07457838 -0.056167733 0.016816122 0.058726527 -0.008747339 -0.08028661 -0.025595747
0.03574335 -0.0034089426 0.028348245 -0.088137776 0.058645822 0.044608813 0.054858886 -0.091879874
0.06541797 -0.074243285 -0.038631126 0.059168153 0.0017193481 -0.01084429 0.007513322 -0.020609714
-0.0029150567 -0.049912594 -0.08136176 0.055901803 -0.033471894 -0.034792244 0.055156477 0.07554323
0.07507496 0.014648937 -0.054789178 0.005707788 0.037398025 0.016146358 0.078773476 0.011597082
0.055128597 -0.0062450133 -0.014807217 -0.055579066 -0.0019890429 -0.0010149479 0.05628734 -0.062413983
-0.0029883508 0.07318386 0.06184445 -0.05671105 -0.0019761825 0.006152995 0.020551339 0.062708504
-0.043167844 -0.044221386 0.015069455 0.0054258397 -0.051722426 0.04333068 -0.008805171 -0.082060695
-0.054838095 -0.034785684 -0.00365395 -0.046288777 -0.00019142032 0.068019055 -0.008259103 -0.058458254
0.047807 0.03786329 -0.12331111 0.007256888 0.0347331 0.02632469 -0.0042506456 0.040561445
-0.08377363 -0.073559396 0.021580253 -0.013999104 0.022393947 -0.09448488 0.0678414 -0.03340418
0.03474428 0.06459769 0.03973459 -0.045909844 0.022897728 0.02035815 -0.027774543 -0.051934496
-0.0872272 -0.019052535 0.019957962 -0.031822767 0.038079344 -0.08475291 -0.056390047 -0.04861463
0.07249768 -0.07163857 0.03952516 -0.064760424 0.07833252 0.04088948 0.06636154 0.055264287
-0.062168896 0.05279728 0.04118485 -0.017131831 -0.08829649 0.065615214 -0.0029852816 -0.013410412
-0.03874901 -0.019755468 -0.044908814 0.08312214 -0.090524085 0.016356982 -0.069153234 -0.020030566
00000000: 2dff 8c3c 1fa7 383d c211 80bd 50ea 3d3d
00000010: 3cd0 2abd ac87 14bd dd27 303d fe98 8dbd
00000020: dd9a 873d 4649 a13d c97a 5abd f803 93bc
00000030: 7639 7a3d efb8 0b3c c784 453d 1a7b 34bd
00000040: f2cb 4e3d ccb8 c6bc 8674 003d c8e6 da3c
00000050: 33e1 99bd 009b adbb 4a63 a7bd d8a4 b0bd
00000060: 5a24 c03c 6285 f3bc c38c 053b e86a a93c
00000070: 0e0a e0bb 121b 6cbd f967 8a3d a7b7 b83d
00000080: e882 6d3c 51a9 84bd f716 02bd 4aee 1c3d
00000090: 833a 483d 8926 b23b 363c f1bc d490 9c3c
000000a0: 9858 253c 82e7 30bd ee62 523d 240c 293d
000000b0: caab 8abd 008a bb3b b8e0 0f3d 7c34 75bd
000000c0: d6ce 9c3d 91e1 95bc b7a1 b53d c69a 733d
000000d0: 2469 05bd 5710 8e3d a322 8dbd 9596 83bd
000000e0: 5c3f b03d 01d6 213c 94f3 02bd a81a a5bd
000000f0: 84c4 9abc 66f6 af3d 5484 3dbd fcf7 8abd
00000100: 1c28 063e fe00 7bbd d10e 76bc a3e6 ad3d
00000110: 788d a93c ce94 42bd 6aa1 b93b df34 10bd
00000120: 4e8a d73c f878 313c 3f7b 773d c9d3 a23d
00000130: b301 873d 4078 d83c c31b 8b3d bc26 fe3c
00000140: 7397 15bd 527e 383d 2966 363d fd53 87bd
00000150: c2c5 e2bc ff41 4dbd 652f c8bb 80b4 16ba
00000160: b90c 6b3c 0284 663d 39ff 8cbd 49b0 823d
00000170: b546 a63d 54ed 05be de1b a7bd 5cca 36bd
00000180: 8e1c 34bd 70cb 903c 19fd 0ebd b884 1dbc
00000190: 57a4 9b3d 00c5 b739 cd1d 893d 612c 9d3d
000001a0: 1e3e 783d f37e 683d 79c7 893d 1aa3 393d
000001b0: 80ba f2ba f5ae 993d 9626 623d ded4 ebbc
000001c0: ba50 503d dbe8 933c 2982 2f3d 0980 27bb
000001d0: 9060 7c3c 7848 b4bc 96f7 9f3d 0948 993d
000001e0: 9ebc 293d 00aa 9739 f1e4 35bc d47b eb3c
000001f0: a382 3dbd 204a 863b 58b1 793c 5915 af3d
00000200: d95d 103c 8dbc 983d 2310 66bd f7c1 893c
00000210: 3a8b 703d 0051 0fbc 4e6d a4bd 2cae d1bc
00000220: 9e67 123d 9168 5fbb 943a e83c 9481 b4bd
00000230: 9a36 703d bbb7 363d b6b3 603d 842b bcbd
00000240: dbf9 853d dd0c 98bd ac3b 1ebd 4e5a 723d
00000250: c05b e13a 40ac 31bc 5032 f63b b4d5 a8bc
00000260: 890a 3fbb 2671 4cbd ffa0 a6bd 4af9 643d
00000270: d319 09bd 5082 0ebd c2eb 613d 69b6 9a3d
00000280: e7c0 993d 1802 703c 9e6a 60bd 6508 bb3b
00000290: ac2e 193d 5e45 843c fd53 a13d b001 3e3c
000002a0: 86ce 613d f8a2 ccbb f899 72bc e0a6 63bd
000002b0: 9a5a 02bb 0008 85ba 8e8d 663d cea5 7fbd
000002c0: 35d8 43bb 6be1 953d 9b50 7d3d d949 68bd
000002d0: d782 01bb 109f c93b 485b a83c 516d 803d
000002e0: c4d0 30bd 7c21 35bd e0e5 763c 3ecb b13b
000002f0: e5da 53bd 837b 313d 9043 10bc 700f a8bd
00000300: e99d 60bd 6f7b 0ebd 1c77 6fbb 4d99 3dbd
00000310: 00b8 48b9 934d 8b3d 3051 07bc ec71 6fbd
00000320: 46d1 433d 8a16 1b3d 898a fcbd 30cb ed3b
00000330: 4c44 0e3d e0a6 d73c 0049 8bbb c223 263d
00000340: 8291 abbd 4fa6 96bd 12c9 b03c 7f5c 65bc
00000350: 8373 b73c 4a81 c1bd 6ff0 8a3d d2d2 08bd
00000360: 0550 0e3d cb4b 843d bdc0 223d f60b 3cbd
00000370: 0494 bb3c 23c6 a63c 7087 e3bc 44b9 54bd
00000380: 2da4 b2bd 1014 9cbc e17e a33c 9758 02bd
00000390: 16f9 1b3d ef92 adbd 40f9 66bd 2220 47bd
000003a0: aa79 943d 3eb7 92bd 22e5 213d 1da1 84bd
000003b0: cd6c a03d ba7b 273d 8fe8 873d ce5c 623d
000003c0: d0a4 7ebd f641 583d 72b1 283d 0e58 8cbc
000003d0: cad4 b4bd 4561 863d b7a4 43bb 58b7 5bbc
000003e0: 48b7 1ebd 38d6 a1bc 4ef2 37bd f13b aa3d
000003f0: b164 b9bd 14ff 853c 36a0 8dbd 2417 a4bc

fc2.bias f4 [64]
0.062382605 -0.095596135 0.003459908 0.037299573 0.07087583 -0.08343811 -0.056825723 0.033703044
0.041591424 -0.06481423 0.05019644 -0.07330401 0.028766446 -0.034548093 -0.038289938 -0.07080105
0.053560726 0.072360754 -0.051233478 -0.024552064 -0.03581677 -0.08007565 0.018722307 -0.03443818
0.03962781 -0.06581613 0.003923133 0.0072957277 -0.050680395 0.059301816 -0.013926014 0.044263594
-0.034521196 0.05266411 -0.005570665 0.055658944 0.038369335 0.038194455 -0.06430693 -0.08412026
-0.034935545 -0.02929223 -0.086967744 -0.04461635 0.03777104 0.074933626 -0.093415424 -0.012946696
-0.08759844 -0.044409595 -0.0053997366 -0.015370203 0.014367559 0.027410962 0.02072879 -0.08194452
0.022058524 0.045205407 0.024274006 -0.075285524 0.029154472 0.01989887 0.00092888926 0.02778773
00000000: e784 7f3d e8c7 c3bd a0bf 623b 70c7 183d
00000010: 5927 913d 9ae1 aabd 17c2 68bd 340c 0a3d
00000020: c55b 2a3d 53bd 84bd c89a 4d3d 6a20 96bd
00000030: 9ca7 eb3c 4d82 0dbd e9d5 1cbd 2400 91bd
00000040: 7e62 5b3d e031 943d 32da 51bd 6921 c9bc
00000050: 9bb4 12bd b4fe a3bd 865f 993c 0d0f 0dbd
00000060: c550 223d 9bca 86bd a08d 803b 0011 ef3b
00000070: 3f96 4fbd 76e6 723d f029 64bc be4d 353d
00000080: 1966 0dbd 52b6 573d 208a b6bb a2fa 633d
00000090: 2a29 1d3d ca71 1c3d 5ab3 83bd 3e47 acbd
000000a0: 9318 0fbd 42f6 efbc 251c b2bd a2bf 36bd
000000b0: ceb5 1a3d cd76 993d 9650 bfbd 611e 54bc
000000c0: d066 b3bd d6e6 35bd 46f0 b0bb 4ed3 7bbc
000000d0: e965 6b3c f48c e03c 6ccf a93c 87d2 a7bd
000000e0: 14b4 b43c 4e29 393d 48da c63c 4c2f 9abd
000000f0: 5cd5 ee3c f402 a33c b480 733a 18a3 e33c

fc3.weight f4 [3, 64]
-0.030701142 -0.08436343 -0.06428774 -0.059155248 -0.08037388 -0.08479743 -0.057879668 -0.084413685
-0.10065307 0.11856395 -0.07997447 -0.032848 -0.11256388 0.02172601 0.030937463 -0.071275145
0.08972512 -0.08724143 0.069937736 0.09328808 0.041890293 -0.034224592 -0.11171488 -0.005832373
0.091649555 -0.057685092 0.12187447 -0.07032628 0.012676626 0.012993655 -0.084385455 0.004574418
-0.08730471 0.057024475 -0.07575028 0.059752494 0.08209981 0.06543648 0.031068787 0.018852651
0.0668492 -0.101127714 -0.0716691 -0.07265358 -0.041664794 -0.10517071 -0.009875441 0.055661388
-0.06693232 -0.09252678 0.054819234 0.07708214 0.017839713 0.0031553954 0.09857577 0.048023768
0.1076331 0.07909918 -0.09333812 0.0014445852 0.0891089 0.012743806 0.07505219 0.078659356
0.08522085 -0.089323826 -0.06586769 -0.037537657 0.119983375 0.11926007 -0.05661142 0.04254523
0.009452931 0.039196387 -0.07638316 -0.0650897 -0.026184201 -0.010026188 0.044094577 -0.06337446
-0.019719183 -0.055065766 0.013240233 -0.08849295 -0.09275061 0.089301534 -0.096448936 0.05212787
-0.1084324 0.02577253 -0.03901863 -0.008669183 0.016748548 -0.00720783 0.10774809 0.09769325
0.08019735 0.06613531 -0.06877883 -0.074479416 -0.016471678 0.05113937 0.0535589 0.025977522
0.042298734 0.023782566 0.05564393 -0.124809 0.08625473 0.004637763 0.048400946 0.091098614
0.077441946 -0.0056761205 -0.0821876 -0.01227096 0.023254963 -0.018214583 0.043510437 -0.0933111
0.028678462 -0.057170656 0.081954464 -0.036008827 0.086993575 -0.07133015 -0.048024494 -0.10037243
-0.096411005 -0.07302925 -0.09926304 -0.0712159 -0.047593474 0.051123902 -0.07259521 0.027541095
0.077877216 -0.08589366 -0.09060435 -0.081291854 0.08005263 -0.042964883 0.039795905 0.0448118
0.038184136 -0.048301604 0.06253645 0.034636777 -0.07603656 0.040245354 0.03504854 0.09413787
-0.07106422 0.053383056 -0.09784821 -0.033937916 0.07209559 0.05759464 -0.048153907 0.11498302
-0.062190816 -0.006547666 -0.036416475 -0.0895641 0.100100644 0.111322805 0.07384114 -0.027860075
-0.07991043 -0.058525607 0.11385821 0.033191115 0.061435074 0.11829378 0.0918535 -0.058017965
0.03575349 -0.05387397 -0.046609722 0.11599629 0.046084836 -0.06843971 -0.0005466044 0.011700462
0.03165506 0.08898474 -0.119374424 0.02179099 0.039852843 0.03943046 0.035957046 -0.01579237
00000000: f680 fbbc bcc6 acbd 4aa9 83bd c64c 72bd
00000010: 109b a4bd 46aa adbd 3b13 6dbd 15e1 acbd
00000020: 3223 cebd a8d1 f23d a8c9 a3bd a08b 06bd
00000030: e487 e6bd bffa b13c 9070 fd3c b4f8 91bd
00000040: cec1 b73d a3ab b2bd 843b 8f3d d20d bf3d
00000050: 2895 2b3d 162f 0cbd c5ca e4bd 7e1d bfbb
00000060: c3b2 bb3d 3447 6cbd 5299 f93d 3a07 90bd
00000070: a0b1 4f3c 57e3 543c 48d2 acbd 00e5 953b
00000080: d0cc b2bd 7f92 693d f622 9bbd 08bf 743d
00000090: f223 a83d 9003 863d f883 fe3c e070 9a3c
000000a0: 3ce8 883d 0c1c cfbd 40c7 92bd 66cb 94bd
000000b0: b4a8 2abd be63 d7bd 9acc 21bc 32fd 633d
000000c0: d013 89bd ae7e bdbd 228a 603d 3edd 9d3d
000000d0: 9724 923c c0ca 4e3b 18e2 c93d 92b4 443d
000000e0: be6e dc3d c0fe a13d 0e28 bfbd 3c58 bd3a
000000f0: ba7e b63d 65cb 503c f6b4 993d 2818 a13d
00000100: 4588 ae3d 69ef b6bd a4e5 86bd 16c1 19bd
00000110: d8b9 f53d a03e f43d 60e1 67bd e843 2e3d
00000120: 77e0 1a3c 648c 203d c66e 9cbd c04d 85bd
00000130: 4080 d6bc e144 24bc 849c 343d 78ca 81bd
00000140: 208a a1bc a48c 61bd 90ed 583c cb3b b5bd
00000150: 08f4 bdbd b9e3 b63d 0587 c5bd 0984 553d
00000160: ce11 debd ea20 d33c 00d2 1fbd 3009 0ebc
00000170: 4034 893c a92f ecbb 08ab dc3d 6613 c83d
00000180: 823e a43d f371 873d eadb 8cbd aa88 98bd
00000190: 9def 86bc 8477 513d 9460 5b3d d0ce d43c
000001a0: 7041 2d3d a8d3 c23c e4ea 633d dc9b ffbd
000001b0: 52a6 b03d 60f8 973b 1240 463d e991 ba3d
000001c0: e299 9e3d c0fe b9bb f951 a8bd 230c 49bc
000001d0: 3181 be3c c036 95bc 0038 323d e419 bfbd
000001e0: 18ef ea3c c72b 6abd bed7 a73d fe7d 13bd
000001f0: b029 b23d 8b15 92bd 55b5 44bd 1090 cdbd
00000200: 2273 c5bd 5c90 95bd 6c4a cbbd a4d9 91bd
00000210: 60f1 42bd 4c67 513d ccac 94bd dd9d e13c
00000220: 177e 9f3d 04e9 afbd c68e b9bd 587c a6bd
00000230: a2f2 a33d f2fb 2fbd 0801 233d 948c 373d
00000240: f866 1c3d e7d7 45bd 1c13 803d 4bdf 0d3d
00000250: 0eb9 9bbd 50d8 243d 0f8f 0f3d 5bcb c03d
00000260: 1e8a 91bd 31a8 5a3d a464 c8bd 7c02 0bbd
00000270: daa6 933d 5be8 6b3d 083d 45bd 387c eb3d
00000280: ccbb 7ebd ce8d d6bb 7129 15bd 626d b7bd
00000290: 9101 cd3d 36fd e33d 063a 973d d03a e4bc
000002a0: 14a8 a3bd 8cb8 6fbd 7e2e e93d 68f3 073d
000002b0: 58a3 7b3d 0244 f23d b01d bc3d 3fa4 6dbd
000002c0: 4072 123d f4aa 5cbd d6e9 3ebd 778f ed3d
000002d0: 74c3 3c3d 1e2a 8cbd 004a 0fba 4bb3 3f3c
000002e0: bca8 013d a23d b63d 947a f4bd 0583 b23c
000002f0: bc3c 233d d681 213d b247 133d 005f 81bc

fc3.bias f4 [3]
-0.03149151 -0.05823473 -0.018963328
00000000: 3efd 00bd 8a87 6ebd fb58 9bbc
